…
4/4 [==============================] - 0s 54ms/step - loss: 2.4263e-05 - categorical_accuracy: 1.0000
Epoch 498/500
4/4 [==============================] - 0s 54ms/step - loss: 2.4092e-05 - categorical_accuracy: 1.0000
Epoch 499/500
4/4 [==============================] - 0s 54ms/step - loss: 2.3928e-05 - categorical_accuracy: 1.0000
Epoch 500/500
4/4 [==============================] - 0s 55ms/step - loss: 2.3785e-05 - categorical_accuracy: 1.0000
Model: "sequential"
_________________________________________________________________
 Layer (type)                Output Shape              Param #
=================================================================
 lstm (LSTM)                 (None, 30, 64)            442112

 lstm_1 (LSTM)               (None, 30, 128)           98816

 lstm_2 (LSTM)               (None, 64)                49408

 dense (Dense)               (None, 64)                4160

 dense_1 (Dense)             (None, 32)                2080

 dense_2 (Dense)             (None, 4)                 132

=================================================================
Total params: 596,708
Trainable params: 596,708
Non-trainable params: 0
_________________________________________________________________
1/1 [==============================] - 0s 338ms/step
teste 0: bomdia
teste 0: bomdia
teste 1: ola
teste 1: ola
teste 2: bomdia
teste 2: bomdia
teste 3: bomdia
teste 3: bomdia